downloaded_model.onnx (onnx, 6670 bytes, 1 tensors)

sequential/dense/MatMul/ReadVariableOp:0 f4 [50, 1]
000000 10 bd a0 3d ae f1 d1 bd 5c ce 95 be 67 7d 8c 3e
       0.07848561 -0.10251175 -0.29259002 0.27439424
000010 b6 a2 29 be fb 4f d8 bc df e4 9f be b7 76 28 be
       -0.16565976 -0.026405325 -0.31229302 -0.16451536
000020 ca 15 48 be 70 56 1e 3e dd 9d be 3d 04 e3 12 3d
       -0.19539562 0.15462661 0.09307454 0.03586103
000030 b9 06 87 3e a5 cd 85 be ea 4b c5 bb a8 b9 78 be
       0.26372316 -0.26133457 -0.0060210126 -0.24289572
000040 0b fd 34 be cb 6c 26 be 74 1f 31 3e 9f 1b 85 be
       -0.17674653 -0.16252439 0.17297155 -0.25997636
000050 14 af 90 3d 5e 01 68 3c 0e c7 b2 be bd 37 3a be
       0.070646435 0.014160482 -0.34917492 -0.18185325
000060 52 cf 3a be 42 71 0d 3c 8c bd 7c bd f4 56 6a 3d
       -0.18243149 0.00863296 -0.061704203 0.05721183
000070 6c c5 25 3e 4a 10 e9 3d 28 c9 b3 3c 7c b1 f5 bc
       0.16188592 0.1138006 0.021946505 -0.029991858
000080 43 80 d0 3c 28 99 91 bd 24 1a 2b bd a2 e4 a8 3d
       0.025451785 -0.0710929 -0.041772977 0.08246733
000090 08 45 a5 be 96 c5 94 be 55 2a ae be d8 0f 91 3e
       -0.3227923 -0.29056996 -0.34016672 0.283324
0000a0 c6 b8 ac be 94 0b 5d be 90 0b 95 3d b8 77 36 b9
       -0.3373472 -0.21586448 0.07277596 -0.00017401471
0000b0 61 6c 03 be 31 ac 73 be 36 4d af be c6 90 e7 3d
       -0.12834312 -0.23796155 -0.34238595 0.1130691
0000c0 d3 c5 aa be c5 25 11 be
       -0.33354053 -0.14174564
